data.pth (torch, 7850 bytes, 6 tensors)

l1.weight f4 [8, 110]
0.17212182 0.20709898 0.38875583 -0.08522744 0.15164147 0.4851386 0.13638026 -0.28480977
0.32807907 0.106159955 0.33188513 -0.43214503 0.2554845 0.40890947 -0.087904476 0.27048188
0.12923102 -0.1653397 0.681651 -0.21586087 0.2644677 0.43541268 0.33824024 0.3655147
0.13138385 0.08899445 0.38728368 0.4981168 0.3781092 0.23408614 0.19876799 -0.10000345
-0.15077394 -0.33651322 0.42999786 -0.337196 0.31604633 0.0542456 -0.22556272 -0.49891296
0.07206302 0.1769876 0.12736696 0.3724797 0.28973037 -0.08977198 0.2233817 -0.5187799
0.2694815 -0.0022474024 0.0827811 -0.28872398 -0.40231645 0.44403347 0.6629022 0.21062061
-0.48186338 0.32304955 0.088901855 0.36008927 -0.19926606 -0.068034664 0.28235853 0.28880918
0.4298555 0.76596344 0.39846587 -0.41526026 -0.014959326 0.36894655 -0.21477929 0.33538592
0.41574678 0.50197697 -0.48322937 0.60520667 -0.15284492 -0.19111525 0.7047264 0.47869468
0.19408287 -0.011005086 0.17820089 0.4176094 -0.7774306 -0.8683701 -0.45653304 -0.37347367
-0.06548116 -0.3339353 0.027040048 0.06928681 0.3246401 0.16489467 0.34858787 0.3574146
0.23032002 -0.6103626 0.49670017 0.42253432 -0.29802552 0.25999016 0.51033664 0.14065818
-0.12044609 -0.10816759 0.26137412 -0.15015516 -0.016024802 -0.008620945 0.36571243 0.008016683
-0.30397993 0.19860193 0.34200665 0.40699348 0.33955926 0.18008988 -0.37082717 0.09423551
0.20913424 -0.12466479 -0.26116547 -0.61000645 0.052453905 -0.20991315 -0.22405934 0.22583763
0.57737374 0.15394758 0.03418828 -0.57989246 0.030056791 0.21756525 -0.2402382 0.26545855
-0.26231202 0.29452172 0.42584908 0.40697563 -0.32370105 0.15500773 0.26274207 0.61145055
0.35902447 0.16745724 0.342374 0.33778417 -0.04772594 0.20482104 0.23395726 0.3651592
0.6230894 -0.31723437 0.19290549 0.43535876 0.22799194 -0.030554764 0.28663862 0.36929044
0.5514442 0.53913796 -0.2536387 -0.33484796 0.16376752 0.097296014 0.1878116 0.34112754
0.2867349 0.21315373 0.19983955 0.28274688 0.12813707 0.31287462 -0.3320125 -0.86021745
0.2889425 -0.19054942 -0.17793904 0.28138456 0.25243306 0.20991707 0.47705144 0.36351404
0.5886838 0.37439314 0.21241142 0.23924644 -0.89837533 0.43482432 0.1311919 0.1371203
0.1860155 0.50985754 -0.57145405 -0.49422017 0.322125 -0.023847625 -0.12335872 0.27434728
0.112523265 0.2056351 0.26264885 0.28533775 0.24589275 0.31203708 0.24425283 -0.5321107
0.34027335 -0.45861033 -0.15651342 0.3890259 0.6359173 0.07061832 0.12594476 0.4511531
0.23703729 0.075934984 0.013556013 -0.053531535 0.055793688 0.10530395 0.40322596 -0.3063433
-0.011111445 0.12403909 0.36647865 0.28847075 0.4353345 -0.120635316 0.11730351 0.08424982
0.44863468 -0.25607082 -0.029473145 0.3036843 0.14935403 0.22249769 0.1152953 0.30068845
0.39147407 0.09339996 0.295609 0.3496751 0.2198278 0.21275547 0.087988466 -0.09372719
0.0861995 -0.03282771 0.316569 0.27860755 0.3048316 -0.032049045 0.17926663 0.26992097
00000000: b440 303e c111 543e 010b c73e b98b aebd
00000010: e747 1b3e 1664 f83e 44a7 0b3e 96d2 91be
00000020: fbf9 a73e 646a d93d d9ec a93e 1d42 ddbe
00000030: ddce 823e 955c d13e 4307 b4bd 9a7c 8a3e
00000040: 2355 043e cf4e 29be ae80 2e3f a20a 5dbe
00000050: 4f68 873e 69ee de3e d32d ad3e be24 bb3e
00000060: 7d89 063e b942 b63d 0c4a c63e 2a09 ff3e
00000070: 8797 c13e 47b4 6f3e d689 4b3e 9cce ccbd
00000080: 7c64 1abe 764b acbe ae28 dc3e f4a4 acbe
00000090: d3d0 a13e a230 5e3d eaf9 66be 8571 ffbe
000000a0: c795 933d 3d3c 353e 7c6c 023e a9b5 be3e
000000b0: 8a57 943e 5fda b7bd 2cbe 643e c2ce 04bf
000000c0: 7bf9 893e 2849 13bb 2389 a93d a1d3 93be
000000d0: 6cfc cdbe 5b58 e33e f5b3 293f eeac 573e
000000e0: ccb6 f6be c066 a53e 2d12 b63d 9f5d b83e
000000f0: 670c 4cbe c255 8bbd 4c91 903e ccde 933e
00000100: 0516 dc3e 2e16 443f b803 cc3e fe9c d4be
00000110: f617 75bc 90e6 bc3e 1aef 5bbe b4b7 ab3e
00000120: c3dc d43e 9081 003f d769 f7be d3ee 1a3f
00000130: 6183 1cbe b7b3 43be f368 343f 7817 f53e
00000140: a9bd 463e ad4e 34bc 4b7a 363e e6d0 d53e
00000150: b105 47bf 814d 5ebf b3be e9be f137 bfbe
00000160: fd1a 86bd 91f9 aabe 1783 dd3c 3ee6 8d3d
00000170: 3a37 a63e 26da 283e 1c7a b23e 0cff b63e
00000180: 03d9 6b3e b940 1cbf 7c4f fe3e 6b56 d83e
00000190: cd96 98be 6e1d 853e 6ca5 023f b308 103e
000001a0: 71ac f6bd f886 ddbd d4d2 853e 46c2 19be
000001b0: 7246 83bc dd3e 0dbc a93e bb3e 6858 033c
000001c0: 42a3 9bbe 4e5e 4b3e 7f1b af3e 7361 d03e
000001d0: b6da ad3e 7b69 383e 0fdd bdbe 8cfe c03d
000001e0: 4927 563e 4150 ffbd 7bb7 85be 6229 1cbf
000001f0: e8d9 563d 79f3 56be d06f 65be fb41 673e
00000200: c4ce 133f 6fa4 1d3e 0309 0c3d d573 14bf
00000210: a939 f63c 6dc9 5e3e 0101 76be 2fea 873e
00000220: c34d 86be 8dcb 963e e408 da3e 1c5f d03e
00000230: 25bc a5be 59ba 1e3e 2186 863e 0688 1c3f
00000240: 0ed2 b73e e979 2b3e a54b af3e 0cf2 ac3e
00000250: 467c 43bd 9bbc 513e 7e92 6f3e 26f6 ba3e
00000260: c982 1f3f 8b6c a2be 0489 453e 58e7 de3e
00000270: b876 693e fc4d fabc 4cc2 923e a313 bd3e
00000280: 722b 0d3f f204 0a3f efdc 81be 3171 abbe
00000290: acb2 273e 2243 c73d af51 403e 45a8 ae3e
000002a0: ebce 923e f944 5a3e bda2 4c3e 33c4 903e
000002b0: 5d36 033e 1a31 a03e 8bfd a9be 3637 5cbf
000002c0: 45f0 933e 631f 43be a735 36be a311 903e
000002d0: e83e 813e 80f4 563e 1640 f43e 831e ba3e
000002e0: fbb3 163f 75b0 bf3e 6182 593e 05fd 743e
000002f0: edfb 65bf 4ba1 de3e 2b57 063e 4469 0c3e
00000300: d97a 3e3e 0686 023f d04a 12bf 6d0a fdbe
00000310: 91ed a43e 185c c3bc 7fa3 fcbd 3f77 8c3e
00000320: 9972 e63d 0292 523e e979 863e ca17 923e
00000330: 4fcb 7b3e 53c3 9f3e 6a1d 7a3e 6838 08bf
00000340: 4f38 ae3e f9ce eabe 0e45 20be 672e c73e
00000350: 7acb 223f 56a0 903d aaf7 003e 8afd e63e
00000360: e7b9 723e cd83 9b3d 0a1a 5e3c e243 5bbd
00000370: ec87 643d 99a9 d73d a273 ce3e 07d9 9cbe
00000380: c70c 36bc 3508 fe3d 17a3 bb3e 70b2 933e
00000390: 2ae4 de3e a60f f7bd d33c f03d 2b8b ac3d
000003a0: 72b3 e53e b71b 83be aa71 f1bc 827c 9b3e
000003b0: 43f0 183e 6fd6 633e f11f ec3d d6f3 993e
000003c0: 4a6f c83e 7a48 bf3d 105a 973e 9d08 b33e
000003d0: 8a1a 613e 92dc 593e 4c33 b43d 0af4 bfbd
000003e0: 5d89 b03d 5976 06bd 5515 a23e a6a5 8e3e
000003f0: e312 9c3e dc45 03bd ac91 373e 1533 8a3e

l1.bias f4 [8]
0.28370807 0.35130683 0.31255502 0.2885452 0.5002315 0.30839407 0.535754 0.41733465
00000000: 2f42 913e 7dde b33e 3607 a03e 32bc 933e
00000010: 2c0f 003f d4e5 9d3e 2d27 093f e3ac d53e

l2.weight f4 [8, 8]
0.55319154 -0.32330987 -0.3756983 -1.0719646 1.0961366 -0.9999796 0.8614586 1.0417593
0.048724156 0.010042895 0.94959307 0.41939354 0.082294144 0.4826946 0.83526033 -1.145871
0.5267343 1.3393775 -0.19203915 0.7244657 -0.43151915 1.059278 -0.31389746 0.9283862
1.1942618 0.5653885 0.47223634 -0.3006116 -0.5922028 -0.047494568 0.06993028 0.77710134
-1.0060403 0.6341727 -0.065376945 0.6060507 1.3615408 0.1082716 0.59946775 0.28105757
0.3256803 -0.74770266 0.959535 0.30576572 0.98299015 -0.7499412 1.0266228 -0.12117171
1.0774283 0.39658374 1.2946392 0.9039553 -0.44467545 0.7970284 0.7059214 -0.9704506
1.4688689 -0.5019497 1.0587204 0.91871655 -0.47051993 0.19223763 0.896045 -0.30458063
00000000: f69d 0d3f df88 a5be 875b c0be 2336 89bf
00000010: 344e 8c3f aafe 7fbf 8d88 5c3f 5e58 853f
00000020: fb92 473d f48a 243c 8818 733f c0ba d63e
00000030: d589 a83d bf23 f73e 9fd3 553f e7ab 92bf
00000040: 0fd8 063f b970 ab3f e9a5 44be 9676 393f
00000050: 14f0 dcbe 6c96 873f 2bb7 a0be b8aa 6d3f
00000060: 92dd 983f 4dbd 103f f6c8 f13e c3e9 99be
00000070: 9a9a 17bf aa89 42bd 9b37 8f3d 1df0 463f
00000080: eec5 80bf 2459 223f 59e4 85bd 2426 1b3f
00000090: f846 ae3f 80bd dd3d b876 193f c7e6 8f3e
000000a0: 91bf a63e 7169 3fbf 16a4 753f 538d 9c3e
000000b0: 3ea5 7b3f 25fc 3fbf 6068 833f e028 f8bd
000000c0: 2ce9 893f 060d cb3e bdb6 a53f 9d69 673f
000000d0: 80ac e3be 0e0a 4c3f 44b7 343f 736f 78bf
000000e0: e503 bc3f c77f 00bf 2684 873f 0231 6b3f
000000f0: fde7 f0be f1d9 443e 3563 653f fef1 9bbe

l2.bias f4 [8]
0.51457345 0.3248477 0.22280006 0.250515 0.42380762 0.029250171 0.17969748 -0.06963254
00000000: 16bb 033f 7052 a63e b325 643e 8143 803e
00000010: 50fd d83e 0e9e ef3c 9e02 383e 819b 8ebd

l3.weight f4 [6, 8]
0.41942865 -1.0855283 -0.48521268 0.12736677 -0.30589262 0.17268683 -0.3783184 0.5106157
0.17891885 -0.7316212 0.8052886 0.7668072 -0.14242178 -1.6578175 -0.9915209 -1.676544
-0.37814954 0.73695725 -1.742159 0.21325347 -1.2387428 0.3659144 0.4366915 0.77067304
-1.2649496 0.18048704 0.5651359 0.33957663 -0.68687004 -1.1485001 0.43479773 0.43779016
0.6694853 0.109954655 -1.5114652 -1.5585501 0.66026103 0.59843487 -0.97063446 -1.277833
-1.1843045 0.5195412 -0.17772917 -1.4262503 0.48467293 0.2828602 0.35566023 0.19982322
00000000: 5abf d63e 97f2 8abf cc6d f8be 6f6c 023e
00000010: f59d 9cbe d1d4 303e f3b2 c1be b6b7 023f
00000020: 8136 373e 874b 3bbf 6527 4e3f 7a4d 443f
00000030: 04d7 11be 5d33 d4bf 50d4 7dbf fe98 d6bf
00000040: d19c c1be 3ba9 3c3f 11ff debf 1e5f 5a3e
00000050: 208f 9ebf 2259 bb3e 0796 df3e d44a 453f
00000060: dee9 a1bf 98d1 383e bfac 103f fddc ad3e
00000070: b7d6 2fbf 0d02 93bf cf9d de3e 0826 e03e
00000080: 6363 2b3f e82f e13d b177 c1bf 927e c7bf
00000090: de06 293f 0733 193f 807b 78bf 0890 a3bf
000000a0: 4a97 97bf a700 053f a3fe 35be 5f8f b6bf
000000b0: 0d27 f83e 0dd3 903e 1919 b63e 759e 4c3e

l3.bias f4 [6]
0.11412496 0.43031582 -0.14503624 0.2746139 0.16821723 0.005753464
00000000: 59ba e93d 5b52 dc3e 6184 14be 319a 8c3e
00000010: 2341 2c3e 8e87 bc3b
